pretrain_backbone_model.pth (torch, 166824 bytes, 5 tensors)

lstm.weight_ih_l0 f4 [400, 1]
-0.28695792 0.08444269 -0.014116171 -0.04057563 -0.11626937 -0.18614297 -0.08807982 -0.22079861
-0.49682057 0.23852514 0.21522975 -0.26743603 -0.42249882 0.12223233 0.010689426 -0.084884696
0.034675285 -0.035164557 -0.18710318 -0.13538145 -0.055819713 0.058666363 0.18017417 -0.12111051
-0.019865213 0.26581568 -0.2865686 0.14798021 0.1779542 0.08746386 0.44396546 0.22005323
-0.21168947 -0.27060708 0.2687181 0.32963267 -0.074043065 -0.10561876 -0.16198483 -0.19161825
0.04727896 0.18077964 0.07655598 0.062630795 -0.37483191 0.19437088 -0.4118585 0.3118719
0.23790039 0.025806848 -0.18189341 0.21239734 0.29490945 -0.108530365 0.124878176 -0.008944339
0.19609569 0.03660398 0.102947466 -0.22692572 0.17543067 0.05197128 -0.034614604 0.32935715
0.12606436 0.2977129 0.11505644 -0.20108584 -0.2971188 -0.1234333 0.021744749 0.07178257
0.5928658 0.15037222 0.07546193 -0.020610727 -0.15502414 0.22603731 -0.18195269 0.027819095
0.3083004 0.32884908 0.088263825 0.31841674 0.49198183 -0.10443759 -0.021360552 0.18311812
-0.055136334 0.14516218 -0.02351615 0.104854904 0.33580214 -0.10707664 0.25447053 -0.10744027
-0.038952544 -0.015304998 -0.18381967 0.005837396 -0.20369998 0.021201234 0.42619127 0.060335062
0.1735192 0.21370092 0.0781785 -0.06482477 0.39215618 0.02557603 0.5176289 0.33282235
0.08511017 0.47528693 -0.314048 0.2551959 0.123224534 -0.21667999 0.16753678 0.05107728
0.25280693 0.14539368 -0.138376 0.17786016 0.093797885 0.02345984 0.12724273 0.0949223
0.38052654 -0.30790144 0.23929316 0.50964034 -0.30829555 0.18365024 0.38684025 0.35996485
0.1540234 0.15328045 -0.09541077 0.16488738 0.014819336 0.2147563 0.004177135 0.3818533
-0.44741204 0.03898617 0.10565736 -0.1898842 0.093824305 0.11267672 -0.20430781 -0.25257957
0.027430573 -0.060791425 -0.068914615 -0.0016274381 0.08618905 0.16765115 0.33200318 -0.6115924
0.09520533 0.04415134 -0.15759379 0.31092334 -0.078697026 0.22949034 0.13199618 0.16720998
0.122106895 0.20177071 -0.16397783 0.012881384 0.36708173 0.17909776 0.16086368 0.23485751
0.2850956 0.4514694 -0.11844869 0.38630867 0.38197955 0.19868064 0.31846374 0.51140374
0.1617511 -0.058931746 0.36154848 -0.057442814 0.054630045 0.606506 0.18531764 0.17612913
0.40546727 0.15039419 0.18940306 0.20679681 0.30057898 0.021367392 0.47584018 -0.028555078
0.21119797 -0.07341627 0.2563454 -0.22787605 -0.24096671 -0.122861065 -0.1400193 0.14399906
0.020652292 0.27437192 -0.22419788 -0.31142235 0.105431594 0.23389386 0.4260139 0.15379992
0.24127527 -0.3557328 0.100206375 0.0020040995 0.06539374 -0.19660704 -0.07318979 0.08107353
0.1991355 0.33433375 0.16658744 -0.017166382 -0.19791462 -0.20229208 -0.069149025 0.10894469
-0.4928564 0.15632594 -0.15575905 0.23075369 0.3322024 -0.18550813 0.021707408 0.07708438
0.3477933 -0.07007916 -0.24371673 -0.30593023 0.39475906 -0.014543924 0.15188178 0.3827647
-0.037917927 -0.116286114 0.12540095 -0.409659 0.05063954 -0.036662925 -0.33926162 -0.1268235
00000000: 26ec 92be 4af0 ac3d 8347 67bc a232 26bd
00000010: a31e eebd 439c 3ebe 3163 b4bd 0819 62be
00000020: 445f febe ef3f 743e 3065 5c3e 60ed 88be
00000030: c451 d8be f254 fa3d b422 2f3c 07d8 adbd
00000040: ac07 0e3d b608 10bd fa97 3fbe 6fa1 0abe
00000050: 36a3 64bd 244c 703d 947f 383e c908 f8bd
00000060: 5fbc a2bc fe18 883e 1fb9 92be 2088 173e
00000070: a039 363e 4120 b33d 714f e33e a255 613e
00000080: 20c5 58be 038d 8abe 6b95 893e 9dc5 a83e
00000090: e4a3 97bd a64e d8bd 5adf 25be 9337 44be
000000a0: 95a7 413d 4c1e 393e 62c9 9c3d 9344 803d
000000b0: f8e9 bfbe 2909 473e 1edf d2be acad 9f3e
000000c0: 299c 733e e268 d33c 4442 3abe b07e 593e
000000d0: 5ffe 963e 2b45 debd 21c0 ff3d 478b 12bc
000000e0: 4fcd 483e 0eee 153d 1fd6 d23d 375f 68be
000000f0: 19a4 333e d6df 543d 0bc8 0dbd 80a1 a83e
00000100: 0417 013e d36d 983e b6a2 eb3d 72e9 4dbe
00000110: f51f 98be 99ca fcbd 0b22 b23c bd02 933d
00000120: 0ec6 173f 2dfb 193e c98b 9a3d d4d7 a8bc
00000130: a6be 1ebe 5376 673e ce51 3abe dfe4 e33c
00000140: 8dd9 9d3e e85e a83e aac3 b43d 8507 a33e
00000150: 0be5 fb3e 60e3 d5bd 53fc aebc 5183 3b3e
00000160: a3d6 61bd 65a5 143e f1a4 c0bc 2bbe d63d
00000170: 42ee ab3e ff4a dbbd f649 823e a509 dcbd
00000180: b48c 1fbd d0c1 7abc 393b 3cbe a047 bf3b
00000190: ba96 50be 36ae ad3c be35 da3e e621 773d
000001a0: 04af 313e 6ad4 5a3e 0d1c a03d d9c2 84bd
000001b0: b2c8 c83e d384 d13c 5483 043f b167 aa3e
000001c0: 3e4e ae3d cf58 f33e e6ca a0be 09a9 823e
000001d0: 255d fc3d 5ce1 5dbe c38e 2b3e 6936 513d
000001e0: e96f 813e 15e2 143e 70b2 0dbe f920 363e
000001f0: 1b19 c03d da2e c03c eb4b 023e 9f66 c23d
00000200: 60d4 c23e 42a5 9dbe 4409 753e ca77 023f
00000210: ead8 9dbe cf0e 3c3e ed0f c63e 504d b83e
00000220: 4fb8 1d3e 8df5 1c3e b966 c3bd 3dd8 283e
00000230: cdcc 723c 13e9 5b3e 59e0 883b 4782 c33e
00000240: 3113 e5be f6af 1f3d e362 d83d 0171 42be
00000250: f526 c03d 0dc3 e63d 1136 51be 1c52 81be
00000260: 15b6 e03c 6e00 79bd 1b23 8dbd c34f d5ba
00000270: e283 b03d beac 2b3e 52fc a93e 5291 1cbf
00000280: 03fb c23d 09d8 343d 4460 21be 5831 9f3e
00000290: e82b a1bd 84ff 6a3e 022a 073e 1839 2b3e
000002a0: 2e13 fa3d fb9c 4e3e cee9 27be 710c 533c
000002b0: 23f2 bb3e 6765 373e 73b9 243e 7d7e 703e
000002c0: 0df8 913e ff26 e73e 3a95 f2bd 40ca c53e
000002d0: d392 c33e f072 4b3e ae0d a33e 5beb 023f
000002e0: 15a2 253e 6a62 71bd e21c b93e 2849 6bbd
000002f0: c1c3 5f3d fa43 1b3f e8c3 3d3e 325b 343e
00000300: 6899 cf3e ef00 1a3e e0f2 413e 8bc2 533e
00000310: 7de5 993e ab0a af3c 53a1 f33e 57ec e9bc
00000320: 4844 583e 455b 96bd b43f 833e 5758 69be
00000330: fabf 76be 959e fbbd 3861 0fbe 7d74 133e
00000340: ff2e a93c 7a7a 8c3e 2194 65be c072 9fbe
00000350: 85ec d73d df81 6f3e 7e1e da3e ba7d 1d3e
00000360: dd10 773e 9c22 b6be 0039 cd3d 3657 033b
00000370: 27ed 853d 5b53 49be 87e4 95bd e109 a63d
00000380: 2dea 4b3e cb2d ab3e e695 2a3e 83a0 8cbc
00000390: 21aa 4abe a825 4fbe 019e 8dbd 651e df3d
000003a0: ad57 fcbe e813 203e 4d7f 1fbe b24a 6c3e
000003b0: 6f16 aa3e d8f5 3dbe bcd3 b13c 6ade 9d3d
000003c0: f711 b23e aa85 8fbd e190 79be e3a2 9cbe
000003d0: dc1d ca3e a349 6ebc e686 1b3e bcf9 c33e
000003e0: d44f 1bbd 6a27 eebd 1b69 003e d3be d1be
000003f0: 686b 4f3d dd2b 16bd b3b3 adbe 05de 01be

lstm.weight_hh_l0 f4 [400, 100]
-0.055565394 0.014438616 0.0019046977 -0.17226532 -0.21988855 0.18558365 -0.14844042 0.11840941
-0.28245482 0.06273631 0.0677359 0.20125827 0.06963566 -0.12891829 0.12613827 -0.0783841
0.09154538 -0.13106033 -0.15571003 -0.08271326 0.015514339 -0.17395136 -0.124327056 0.03297274
0.21849377 -0.015776493 0.0031673128 -0.06419287 0.07115077 0.17008412 -0.07182228 0.116670884
-0.11634203 0.1500393 -0.04937199 -0.03792945 -0.1277347 -0.0913091 0.15326355 -0.12678201
0.064325824 0.005200988 0.061905812 -0.00979401 -0.026796928 -0.061883196 0.16293003 0.13081011
-0.013952265 0.11650961 0.047619175 0.010891167 -0.047006898 -0.1899967 -0.1295806 -0.06789338
-0.11360752 -0.13358466 -0.04937788 0.023353387 -0.17817537 -0.1112381 0.0024789907 0.09991642
0.12005226 0.0028175502 -0.020197159 0.16639368 0.1973397 -0.29808104 -0.06451484 0.11741175
-0.1702774 0.12592465 0.07996116 0.023712365 0.031093668 0.18885975 0.0042683748 -0.012772019
-0.04851895 -0.22110704 0.050147727 0.27283418 0.032350022 -0.40188155 -0.13481867 0.01621624
0.113544434 -0.045999262 0.0012208968 -0.05259896 -0.32401633 -0.08054598 -0.1215747 0.10838009
0.22446738 -0.21296875 -0.051479105 -0.05147711 -0.010316875 0.0030434837 0.09355075 0.13841291
-0.08636576 -0.012531854 -0.142644 -0.09094716 0.054046042 0.1051249 -0.12224102 0.064371124
-0.085465945 -0.04370038 0.3157116 0.004153591 0.19027378 -0.069065 0.031568013 0.10358873
-0.0099093625 -0.13759716 -0.16821563 0.22379531 0.14596221 0.13482127 0.009758196 -0.09654923
0.055453453 -0.029911458 -0.01448422 -0.060109593 -0.18010129 0.03946894 0.009273226 -0.051403455
0.065089144 -0.08177692 -0.009202911 0.002186105 0.19225456 0.04968105 -0.07271558 0.045215372
0.009951668 -0.272113 0.016620437 0.07816301 -0.080978155 -0.04952334 -0.012321986 -0.14249311
0.026649233 0.04357274 0.03766552 -0.110969804 -0.099069685 -0.040788908 -0.070780106 -0.039680757
-0.30206645 -0.024136543 -0.065278776 0.0894524 0.20783564 0.06312335 0.053751793 0.050059922
-0.008296643 -0.017954903 0.2520639 0.4506707 -0.11753334 0.26946574 -0.03512911 -0.054601375
-0.012129192 -0.045568004 -0.02834557 -0.026094887 0.07892659 -0.22393082 0.068615235 -0.26439273
-0.24348095 0.022524301 -0.0395373 -0.09252403 -0.08883783 -0.17341985 0.015715806 0.28266844
-0.30068314 -0.12499508 0.16918859 0.053674646 0.034803413 -0.041598447 0.081715904 0.081793115
-0.06677179 0.045248244 0.102983855 0.00074295246 -0.15192574 -0.24121031 0.09375437 0.07662241
0.14136031 -0.007961122 -0.19905032 -0.080233976 0.12475676 0.102071814 0.06087538 0.24027225
0.09720576 0.008260783 0.105176814 0.33291125 0.25455344 -0.2333955 -0.2178654 0.046250418
-0.13155594 -0.037183154 0.12714742 0.07924166 -0.3108399 0.13011727 -0.20391828 0.16434918
-0.08305323 0.13067468 -0.17506343 0.17618635 0.10597651 0.05011007 -0.0047991513 0.18353227
-0.10359649 -0.13661154 0.081627764 -0.061722387 -0.12934002 0.03385989 0.17971177 -0.017278656
-0.044511687 -0.25950384 -0.14961638 -0.04380749 -0.10376555 -0.048286192 -0.1331019 -0.007304212
00000000: 8a98 63bd f28f 6c3c 0da7 f93a 5266 30be
00000010: 772a 61be a409 3e3e c400 18be a280 f23d
00000020: eb9d 90be e57b 803d 1fb9 8a3d a616 4e3e
00000030: 249d 8e3d 2803 04be 642a 013e d887 a0bd
00000040: 257c bb3d ae34 06be 7372 1fbe 9265 a9bd
00000050: db2f 7e3c 4e20 32be 2f9f febd 6c0e 073d
00000060: d5bc 5f3e b43d 81bc b192 4f3b 8d77 83bd
00000070: 7fb7 913d 882a 2e3e 8f17 93bd 25f1 ee3d
00000080: bb44 eebd e7a3 193e 493a 4abd e95b 1bbd
00000090: e3cc 02be 4400 bbbd 1ff1 1c3e 25d3 01be
000000a0: 42bd 833d 0d6d aa3b f390 7d3d 0e77 20bc
000000b0: 3b85 dbbc 3c79 7dbd 21d7 263e 16f3 053e
000000c0: 0a98 64bc 979c ee3d 530c 433d de70 323c
000000d0: 4e8a 40bd 7f8e 42be c7b0 04be af0b 8bbd
000000e0: 0fab e8bd 6bca 08be 7640 4abd 9a4f bf3c
000000f0: 9b73 36be cdd0 e3bd 9076 223b fba0 cc3d
00000100: f6dd f53d a6a6 383b 8374 a5bc 1b63 2a3e
00000110: 6b13 4a3e 149e 98be 5b20 84bd 9275 f03d
00000120: 335d 2ebe 64f2 003e adc2 a33d 6f40 c23c
00000130: 26b8 fe3c 7364 413e b9dd 8b3b bb41 51bc
00000140: cebb 46bd e269 62be b467 4d3d ecb0 8b3e
00000150: 7581 043d 6bc3 cdbe e80d 0abe ecd7 843c
00000160: fc89 e83d b969 3cbd 8006 a03a 0272 57bd
00000170: 78e5 a5be 4af5 a4bd 28fc f8bd 61f6 dd3d
00000180: c7da 653e 7b14 5abe c1db 52bd a9d9 52bd
00000190: 1c08 29bc 2f75 473b 8997 bf3d 1dbc 0d3e
000001a0: 88e0 b0bd 6852 4dbc 4511 12be 8142 babd
000001b0: 625f 5d3d b94b d73d 8059 fabd 02d5 833d
000001c0: c508 afbd 2bff 32bd f3a4 a13e d91a 883b
000001d0: 21d7 423e f371 8dbd 764d 013d 5426 d43d
000001e0: e15a 22bc 45e6 0cbe b840 2cbe 992a 653e
000001f0: 1e77 153e 960e 0a3e d7e0 1f3c 9abb c5bd
00000200: 2923 633d e008 f5bc 394f 6dbc 7a35 76bd
00000210: 796c 38be 2faa 213d bbee 173c 6e8c 52bd
00000220: 754d 853d a87a a7bd cec7 16bc c144 0f3b
00000230: 61de 443e 5b7e 4b3d e8eb 94bd c133 393d
00000240: 520c 233c 6552 8bbe 9527 883c ee13 a03d
00000250: e0d7 a5bd fcd8 4abd 28e2 49bc b7e9 11be
00000260: 7e4f da3c 5479 323d 2947 1a3d 2344 e3bd
00000270: 0ce5 cabd 4512 27bd 29f5 90bd 4a88 22bd
00000280: 74a8 9abe 00ba c5bc e1b0 85bd d232 b73d
00000290: ded2 543e d146 813d d72a 5c3d a20b 4d3d
000002a0: a5ee 07bc 2916 93bc 850e 813e 4fbe e63e
000002b0: 52b5 f0bd 6af7 893e 8be3 0fbd b1a5 5fbd
000002c0: 85b9 46bc 84a5 3abd f834 e8bc f2c4 d5bc
000002d0: 44a4 a13d 1f4e 65be 2586 8c3d 7c5e 87be
000002e0: 1253 79be e284 b83c ddf1 21bd 3d7d bdbd
000002f0: 9cf0 b5bd f994 31be 6fbe 803c ebb9 903e
00000300: 24f3 99be 6cfd ffbd c63f 2d3e f2d9 5b3d
00000310: 068e 0e3d 2263 2abd ab5a a73d 2683 a73d
00000320: a6bf 88bd 3956 393d 33e9 d23d b2c2 423a
00000330: 6c92 1bbe d6ff 76be 4b02 c03d 36ec 9c3d
00000340: c2c0 103e 5e6f 02bc d9d3 4bbe b651 a4bd
00000350: 7980 ff3d 070b d13d 7658 793d ee09 763e
00000360: d013 c73d 3c58 073c f166 d73d 5873 aa3e
00000370: d454 823e 3bff 6ebe 1b18 5fbe 1471 3d3d
00000380: 9ab6 06be 5d4d 18bd ef32 023e 7449 a23d
00000390: 6826 9fbe 763d 053e f4cf 50be 274b 283e
000003a0: d017 aabd 95cf 053e d443 33be 326a 343e
000003b0: 360a d93d 3740 4d3d 3342 9dbb e2ef 3b3e
000003c0: 662a d4bd e5e3 0bbe 752c a73d 9dd0 7cbd
000003d0: b671 04be abb0 0a3d 5d06 383e f88b 8dbc
000003e0: e351 36bd b0dd 84be 0935 19be 7c6f 33bd
000003f0: 0883 d4bd bec7 45bd dd4b 08be 2c58 efbb

lstm.bias_ih_l0 f4 [400]
0.054741018 -0.18504804 0.049521774 0.15538813 0.2402591 0.22766824 -0.03696337 -0.02439443
0.07166452 0.08095021 0.040576406 0.022557344 0.11063043 -0.07586888 -0.023695955 -0.13943757
0.0988185 0.012778813 -0.078327924 -0.0073373658 -0.015478806 -0.11708917 0.110467374 0.13320309
-0.10472825 -0.026241235 -0.042866997 -0.20848729 0.08917547 -0.023396792 0.02448867 0.013728907
0.06201022 0.16798766 0.086478904 0.010763279 0.010095932 -0.017976468 0.051480945 -0.028751737
0.054793555 -0.14923833 -0.11336742 0.116709165 0.08611018 -0.02211105 -0.0010001112 -0.068750314
-0.069498114 -0.011717204 -0.115821235 0.007923752 -0.08872062 0.04970779 0.15214987 -0.1916011
-0.10136587 -0.02514622 0.043182965 0.106202394 0.12596582 -0.25609457 0.15643921 0.07389568
0.03001561 -0.06248902 -0.01041939 0.13623033 0.10395926 -0.12935652 0.15151858 0.04345077
-0.10490793 0.09189102 -0.10098447 -0.0008862304 0.022112105 -0.17361175 0.06324206 0.065120175
-0.19799037 -0.17603555 -0.024593964 0.10235606 0.11684132 -0.20218506 -0.05547252 -0.10145435
-0.029578315 -0.01085775 -0.037177112 -0.059621718 -0.20188835 0.17982396 -0.1107714 -0.11200204
0.24274772 -0.09684436 0.12707984 -0.030998524 -0.032114875 -0.16938978 -0.021321025 -0.0336369
-0.045504194 -0.04632715 -0.10799348 -0.08592072 0.08562356 -0.12933947 -0.08436795 -0.010687156
0.021136394 0.086397834 -0.17068394 0.017050875 -0.11795193 -0.012051274 -0.06509454 0.024602132
-0.045516692 -0.043881416 -0.07570557 0.058140583 -0.115501195 -0.19524923 0.06327491 0.047531985
-0.052458633 -0.20824578 -0.12507679 -0.11896647 -0.12516738 -0.10170362 -0.025338504 -0.11738193
0.023813218 0.01818494 -0.054902744 -0.02790924 -0.12264463 -0.1368823 -0.09589341 -0.075170875
-0.12756981 -0.01143113 -0.0029688703 0.009399668 -0.13759668 -0.07590749 0.055437997 -0.032805983
-0.046324648 -0.012829536 0.019231077 0.0066108205 -0.07876181 -0.0050774156 -0.104247265 -0.0020369797
-0.12439506 -0.020684702 -0.12299632 -0.048552155 -0.13089332 -0.053364124 -0.03746874 0.02881125
-0.008498972 0.066253066 -0.24681053 -0.08884043 0.04076958 -0.022735199 -0.031024791 -0.053796597
-0.08967258 -0.027778829 -0.073299885 -0.12716566 0.038678396 0.017043315 -0.06430915 0.0013952024
-0.10277986 -0.047393538 0.0016251509 -0.061161052 0.10224701 0.07277335 -0.13595948 -0.087041736
-0.026774315 -0.00038176507 -0.15975407 -0.067825936 -0.054953367 -0.03123829 0.040279534 -0.00492541
-0.057804946 0.05285532 -0.05644466 -0.07184215 -0.18066433 -0.048921365 -0.045381084 0.022873955
-0.085993245 -0.04538164 -0.048975315 -0.065536864 0.12773319 0.09532658 0.07085313 0.083224386
0.14659514 -0.15595746 0.03702708 0.117887005 0.011165901 -0.15484154 -0.082735255 0.10555919
0.03342631 0.014573022 -0.053017184 0.039861135 -0.08246108 0.0019602089 -0.04575505 0.091006316
0.01695288 0.14983428 -0.10321842 0.1250638 -0.13149217 0.044051148 0.030357817 -0.0063549937
0.0055471957 0.03778368 -0.014929591 -0.09894282 -0.030565321 -0.021123124 0.18654567 0.11035345
0.03598463 -0.020499675 0.0079331985 -0.02099387 -0.09966091 -0.066960625 -0.13311985 -0.06370624
00000000: 1e38 603d 3c7d 3dbe 58d7 4a3d 111e 1f3e
00000010: 7b06 763e dd21 693e e766 17bd d4d6 c7bc
00000020: d9c4 923d 39c9 a53d 7233 263d 2eca b83c
00000030: 3592 e23d 2561 9bbd 051e c2bc b9c8 0ebe
00000040: 5b61 ca3d 3a5e 513c 646a a0bd 496e f0bb
00000050: d19a 7dbc 72cc efbd b83c e23d 6466 083e
00000060: c47b d6bd dcf7 d6bc 4e95 2fbd b17d 55be
00000070: a1a1 b63d a1aa bfbc 779c c83c 36ef 603c
00000080: 6efe 7d3d f504 2c3e da1b b13d 7758 303c
00000090: 6869 253c 6343 93bc afdd 523d c388 ebbc
000000a0: 356f 603d efd1 18be 2e2d e8bd 3705 ef3d
000000b0: 895a b03d 3c22 b5bc 2a16 83ba f7cc 8cbd
000000c0: 0755 8ebd 84f9 3fbc af33 edbd a0d2 013c
000000d0: 28b3 b5bd 659a 4b3d 2dcd 1b3e 1433 44be
000000e0: e998 cfbd 72ff cdbc 9fe0 303d a480 d93d
000000f0: 2ffd 003e d41e 83be 9a31 203e 9e56 973d
00000100: 4ce3 f53c 7df4 7fbd 17b6 2abc f77f 0b3e
00000110: 98e8 d43d 0976 04be b027 1b3e 6ff9 313d
00000120: f8d9 d6bd 5c31 bc3d f2d0 cebd ea51 68ba
00000130: 7224 b53c 47c7 31be 0e85 813d ba5d 853d
00000140: fdbd 4abe aa42 34be 4879 c9bc 0ea0 d13d
00000150: 814a ef3d 9a09 4fbe 2737 63bd 4cc7 cfbd
00000160: 394e f2bc b4e4 31bc 0747 18bd e735 74bd
00000170: d2bb 4ebe c623 383e 1edc e2bd 5361 e5bd
00000180: dc92 783e 5656 c6bd 3821 023e 9ef0 fdbc
00000190: e38a 03bd 8474 2dbe 6ea9 aebc d9c6 09bd
000001a0: 9b62 3abd 8ac1 3dbd b02b ddbd 34f7 afbd
000001b0: 685b af3d 9171 04be 1bc9 acbd 2e19 2fbc
000001c0: 3b26 ad3c 59f1 b03d c5c7 2ebe 47ae 8b3c
000001d0: c890 f1bd b572 45bc 4950 85bd 698a c93c
000001e0: b66f 3abd 00bd 33bd 860b 9bbd d224 6e3d
000001f0: e48b ecbd 6aef 47be 4796 813d e6b0 423d
00000200: ddde 56bd 623e 55be 2114 00be b1a4 f3bd
00000210: e12b 00be fd49 d0bd b292 cfbc f065 f0bd
00000220: f013 c33c 95f8 943c b3e1 60bd eba1 e4bc
00000230: 1c2d fbbd e02a 0cbe c463 c4bd 30f3 99bd
00000240: a9a1 02be a249 3bbc 6191 42bb 1101 1a3c
00000250: 25e6 0cbe 6375 9bbd f412 633d 915f 06bd
00000260: eabe 3dbd f932 52bc 7e8a 9d3c 959f d83b
00000270: df4d a1bd 7360 a6bb 977f d5bd d97e 05bb
00000280: d6c2 febd f772 a9bc 7fe5 fbbd a0de 46bd
00000290: e608 06be 5794 5abd d278 19bd 9205 ec3c
000002a0: 463f 0bbc b0af 873d e6bb 7cbe f9f1 b5bd
000002b0: 01fe 263d 2b3f babc b427 febc d259 5cbd
000002c0: 42a6 b7bd 6d90 e3bc 401e 96bd b737 02be
000002d0: 3d6d 1e3d 6c9e 8b3c 84b4 83bd 39df b63a
000002e0: 3f7e d2bd ba1f 42bd 0403 d53a 0384 7abd
000002f0: e166 d13d 320a 953d f638 0bbe f042 b2bd
00000300: cf55 dbbc a427 c8b9 9296 23be 53e8 8abd
00000310: c816 61bd 71e7 ffbc 27fc 243d 5565 a1bb
00000320: e1c4 6cbd d27e 583d 8432 67bd fa21 93bd
00000330: 1200 39be c561 48bd 84e1 39bd 2962 bb3c
00000340: 3a1d b0bd 19e2 39bd 579a 48bd 3138 86bd
00000350: 7dcc 023e 953a c33d 721b 913d 8c71 aa3d
00000360: 091d 163e 50b3 1fbe b5a9 173d be6e f13d
00000370: 2ff1 363c c88e 1ebe 1a71 a9bd 6b2f d83d
00000380: 07ea 083d afc3 6e3c 8c28 59bd 6e45 233d
00000390: 5be1 a8bd d976 003b a669 3bbd 8561 ba3d
000003a0: c4e0 8a3c 286e 193e 2e64 d3bd ba10 003e
000003b0: e2a5 06be fa6e 343d f5b0 f83c 8d3d d0bb
000003c0: 40c5 b53b 0fc3 1a3d 3e9b 74bc 89a2 cabd
000003d0: 2064 fabc 670a adbc d405 3f3e fd00 e23d
000003e0: 9f64 133d efee a7bc 3ffa 013c 56fb abbc
000003f0: 051b ccbd a722 89bd 9250 08be 6b78 82bd

lstm.bias_hh_l0 f4 [400]
0.05463717 -0.18625759 0.16074547 0.07103264 0.09972132 0.10218513 -0.0064343037 0.058577508
-0.047097363 0.071459584 0.09716677 0.13551633 0.15647767 -0.06012694 0.13574894 -0.13854912
-0.06059343 0.04920622 0.00966685 -0.11151477 -0.01933086 0.015773753 -0.06764101 0.12571059
-0.015767092 0.029103223 -0.071527354 -0.16476946 0.17210175 0.08414208 -0.12470424 0.038590353
0.107255936 0.09815176 -0.026841454 0.012574832 0.012791429 -0.078838415 0.1597535 -0.10260548
0.089068346 0.021269083 -0.028717825 0.16769175 0.069822595 0.14001773 0.05474521 0.0520009
-0.15575539 -0.0040258314 -0.030737104 0.08601267 -0.0076044565 0.045692377 0.10442732 -0.11093624
-0.14467336 0.06842344 0.008094905 0.19707295 0.12618698 -0.21359761 0.0036224409 0.10863427
0.13797343 0.05075626 -0.042512894 -0.030752463 -0.008399785 -0.17324333 0.21241486 0.10968449
-0.11522171 0.12724775 -0.09160954 0.08625472 0.18937057 -0.1830867 0.0019399556 0.18343133
-0.043929286 -0.09365814 0.116741076 0.26657674 -0.0066165035 -0.13129762 0.045426704 -0.16271743
-0.15495199 -0.12262651 0.03177037 -0.09942278 -0.2688932 0.05346729 -0.081958346 0.002822535
0.19863518 -0.09516996 0.20206001 0.035670914 -0.05341563 -0.18201767 -0.016210103 -0.044489715
-0.067086816 0.09269552 -0.059159853 -0.04486801 0.025185777 -0.09954603 -0.11723621 -0.10160156
-0.05321062 -0.018143162 -0.14378242 0.014069073 -0.09287241 -0.074188754 0.007861072 0.060073398
-0.103462175 0.06104089 -0.042776145 -0.04250186 -0.13747716 -0.20540687 -0.05434121 0.07420037
-0.06036377 -0.19238746 -0.1026653 -0.08394087 -0.011749183 0.041265804 0.05224382 0.032436963
-0.14991255 0.019252252 -0.064629085 -0.077584244 -0.12877625 -0.15782365 -0.15771762 -0.02027403
-0.052203335 -0.037264034 0.046605583 -0.061642796 -0.03253416 -0.04110711 -0.013143489 -0.19675153
-0.031660877 -0.017848713 -0.013245428 -0.06346307 -0.17701401 -0.13968873 -0.046665706 0.0078021837
-0.06363747 -0.057606988 -0.09129443 0.07597827 0.004553632 -0.10774382 -0.032897476 -0.04403336
-0.06707059 0.23178956 -0.25318614 -0.008641911 0.023072049 -0.04889301 -0.035681058 -0.14771333
-0.04500606 -0.076094486 0.062477913 -0.02574363 -0.118312135 -0.12572877 -0.03952285 0.027604448
-0.06394071 -0.013113765 0.09267088 -0.0072578364 0.00933928 0.08590054 -0.07035204 -0.13093966
-0.042490926 0.049132265 -0.09065965 -0.010954958 -0.10157571 -0.13648391 -0.11508866 -0.001969683
0.06135926 -0.056586538 0.08595404 -0.21658221 -0.23857898 0.06678034 -0.06731888 0.08690707
-0.08555805 0.077987105 0.023734128 -0.11562308 0.17027807 0.03405017 0.04238905 0.08005325
0.0386946 -0.09193546 0.10852529 -0.018869512 -0.010955985 -0.16511622 -0.07425195 0.029083654
0.17942603 0.14701404 -0.028933598 0.09369436 -0.10461271 0.07614475 -0.13421912 0.024533294
-0.10444899 0.045316182 0.021006681 0.010777324 -0.082449846 -0.062535875 -0.059339248 -0.038229108
0.07719065 -0.062376477 -0.04935739 -0.043717727 -0.028603118 0.014130599 0.11068891 0.13799568
0.080518134 -0.039927095 0.009988808 -0.1755783 0.010147414 0.0025007925 -0.12757556 -0.15805344
00000000: 3acb 5f3d 4fba 3ebe 769a 243e 9079 913d
00000010: b13a cc3d 7046 d13d dad6 d2bb f8ee 6f3d
00000020: 2ae9 40bd 6759 923d 5fff c63d cbc4 0a3e
00000030: af3b 203e ab47 76bd c501 0b3e d2df 0dbe
00000040: d130 78bd 768c 493d b561 1e3c db61 e4bd
00000050: c05b 9ebc f537 813c 5f87 8abd 47ba 003e
00000060: fd29 81bc e269 ee3c ef7c 92bd 53b9 28be
00000070: 713b 303e af52 ac3d f064 ffbd eb10 1e3d
00000080: 00a9 db3d ca03 c93d 9ce2 dbbc ab06 4e3c
00000090: 2493 513c 0976 a1bd 6c96 233e d222 d2bd
000000a0: 7769 b63d 803c ae3c a541 ebbc 63b7 2b3e
000000b0: 26ff 8e3d cf60 0f3e 833c 603d e5fe 543d
000000c0: 577e 1fbe 1feb 83bb 61cc fbbc 6927 b03d
000000d0: ce2e f9bb ee27 3b3d fedd d53d 8a32 e3bd
000000e0: 4125 14be 9721 8c3d 7ea0 043c 7ecd 493e
000000f0: 2937 013e 55b9 5abe 7966 6d3b a57b de3d
00000100: e848 0d3e cce5 4f3d 0022 2ebd 97ec fbbc
00000110: 409f 09bc b366 31be 4883 593e 43a2 e03d
00000120: 5cf9 ebbd 3c4d 023e c89d bbbd 51a6 b03d
00000130: 5cea 413e 147b 3bbe 1c46 fe3a 6cd5 3b3e
00000140: 32ef 33bd d7cf bfbd f215 ef3d bf7c 883e
00000150: 41cf d8bb e272 06be 5a11 3a3d 669f 26be
00000160: bcab 1ebe 9c23 fbbd a621 023d 2c9e cbbd
00000170: 5fac 89be 8400 5b3d c7d9 a7bd 48fa 383b
00000180: 0567 4b3e 78e8 c2bd d2e8 4e3e aa1b 123d
00000190: 59ca 5abd d762 3abe 0dcb 84bc d93a 36bd
000001a0: d064 89bd 26d7 bd3d 9a51 72bd 85c7 37bd
000001b0: 6752 ce3c cade cbbd 8a19 f0bd 7b14 d0bd
000001c0: 61f3 59bd f8a0 94bc b33b 13be f881 663c
000001d0: e433 bebd 46f0 97bd bacb 003c 860f 763d
000001e0: fae3 d3bd 0306 7a3d 0a36 2fbd 6e16 2ebd
000001f0: d0c6 0cbe 2e56 52be e394 5ebd 5df6 973d
00000200: 0040 77bd 3801 45be 2f42 d2bd 31e9 abbd
00000210: a57f 40bc 5506 293d 9efd 553d 9fdc 043d
00000220: ad82 19be e6b6 9d3c 415c 84bd 7de4 9ebd
00000230: ecdd 03be 869c 21be ba80 21be b915 a6bc
00000240: 2ad3 55bd 2ca2 18bd 7fe5 3e3d 287d 7cbd
00000250: 8a42 05bd ee5f 28bd ca57 57bc 3c79 49be
00000260: d6ae 01bd 7737 92bc 5a03 59bc edf8 81bd
00000270: 2943 35be 900a 0fbe 8a24 3fbd 76a9 ff3b
00000280: 5d54 82bd 4ef5 6bbd 93f8 babd 7f9a 9b3d
00000290: a236 953b cba8 dcbd 81bf 06bd 535c 34bd
000002a0: 4e5c 89bd 3e5a 6d3e 9da1 81be cd96 0dbc
000002b0: 9801 bd3c 0944 48bd 4d26 12bd 2a42 17be
000002c0: 4658 38bd 6dd7 9bbd d7e8 7f3d 4ee4 d2bc
000002d0: a24d f2bd 0bbf 00be b6e2 21bd b922 e23c
000002e0: 59f3 82bd 1edb 56bc 3bca bd3d 25d3 edbb
000002f0: c803 193c 9fec af3d bb14 90bd 0c15 06be
00000300: f70a 2ebd ea3e 493d c4ab b9bd 6d7c 33bc
00000310: ed06 d0bd 70c2 0bbe 9ab3 ebbd cc15 01bb
00000320: d953 7b3d 49c7 67bd ac08 b03d bac7 5dbe
00000330: 0c4e 74be 22c4 883d 7bde 89bd 55fc b13d
00000340: 0f39 afbd b4b7 9f3d 136e c23c cbcb ecbd
00000350: 605d 2e3e 3178 0b3d 24a0 2d3d f5f2 a33d
00000360: 3b7e 1e3d a948 bcbd 8242 de3d 3c94 9abc
00000370: bb80 33bc 3a14 29be 6811 98bd d840 ee3c
00000380: 75bb 373e d98a 163e 2706 edbc d4e2 bf3d
00000390: 303f d6bd c7f1 9b3d bd70 09be 0cfa c83c
000003a0: 5ae9 d5bd 769d 393d 3416 ac3c 6093 303c
000003b0: 77db a8bd cf12 80bd b60d 73bd 2096 1cbd
000003c0: 2216 9e3d 7a7e 7fbd f92a 4abd 5c11 33bd
000003d0: 1651 eabc 0784 673c deb0 e23d bd4e 0d3e
000003e0: b1e6 a43d 988a 23bd 19a8 233c ccca 33be
000003f0: 5741 263c 56e4 233b 2ba3 02be c3d8 21be

linear.weight f4 [1, 100]
0.13050905 -0.048081078 0.07751402 0.011864278 -0.037340377 0.07696098 -0.002845475 0.09602357
0.39711717 0.020483905 -0.27220598 -0.14959666 -0.038642388 0.027735213 0.21728982 -0.05088535
0.118892744 -0.30890554 0.035146207 -0.08059834 -0.16565788 0.021469658 0.06501295 -0.03479821
0.0941198 0.3338939 0.049388252 -0.44799036 0.068163104 -0.1427041 0.059803884 -0.17694925
-0.104208834 -0.00878276 0.041074075 0.25300226 0.14663252 -0.022261297 0.19628863 -0.12262444
0.18469062 0.17369175 -0.113925755 -0.21666366 0.26079217 0.19399598 0.07233497 0.25049374
-0.032567713 0.02066219 -0.06564273 -0.23570612 -0.051643148 0.048894405 -0.25553623 0.16592556
-0.05947226 -0.1576056 0.16499014 0.40754324 0.20963894 0.090698585 -0.118536614 -0.07406115
-0.044243816 -0.14405616 0.10058393 0.04659074 0.11444263 -0.11720356 0.17111777 -0.14524804
0.33963987 -0.04937913 -0.20544569 -0.06985642 -0.1275097 -0.109725595 -0.14059979 -0.16947946
-0.043755867 -0.49456125 0.04452786 -0.5006667 0.14086993 -0.05251148 -0.22419548 0.036212284
0.7536171 0.074451685 0.068092264 -0.004912444 0.06904585 -0.2054896 0.0791991 0.123494245
-0.15514801 -0.09311759 -0.14276408 -0.13949087
00000000: 2aa4 053e aaf0 44bd acbf 9e3d 6462 423c
00000010: 39f2 18bd b89d 9d3d 267b 3abb 01a8 c43d
00000020: f152 cb3e ddcd a73c 955e 8bbe de2f 19be
00000030: 7b47 1ebd f534 e33c 3981 5e3e 286d 50bd
00000040: 0a7e f33d de28 9ebe 78f5 0f3d be10 a5bd
00000050: 38a2 29be 23e1 af3c 8225 853d 9188 0ebd
00000060: e2c1 c03d 24f4 aa3e 564b 4a3d fe5e e5be
00000070: 1999 8b3d 0621 12be ebf4 743d 2f32 35be
00000080: 716b d5bd 91e5 0fbc 4a3d 283d 8389 813e
00000090: d626 163e 535d b6bc e3ff 483e 8622 fbbd
000000a0: 8a1f 3d3e 40dc 313e e851 e9bd 14dd 5dbe
000000b0: 8d86 853e e2a6 463e 5b24 943d b740 803e
000000c0: b965 05bd c143 a93c b26f 86bd f25c 71be
000000d0: c487 53bd 8045 483d a5d5 82be 64e8 293e
000000e0: 2f99 73bd 5d63 21be 2df3 283e 82a9 d03e
000000f0: 97ab 563e 2ec0 b93d 53c3 f2bd 5fad 97bd
00000100: 0139 35bd 7583 13be f3fe cd3d efd5 3e3d
00000110: e660 ea3d 6c08 f0bd 7f39 2f3e e7bb 14be
00000120: 47e5 ad3e c541 4abd 5b60 52be e210 8fbd
00000130: e791 02be d0b7 e0bd 64f9 0fbe 068c 2dbe
00000140: 5a39 33bd 2237 fdbe d862 363d b12b 00bf
00000150: 3540 103e 4716 57bd 8093 65be 5553 143d
00000160: 0ded 403f 207a 983d f573 8b3d 91f8 a0bb
00000170: e967 8d3d de6b 52be 2333 a23d 8dea fc3d
00000180: 1fdf 1ebe 6fb4 bebd bf30 12be b2d6 0ebe
